app/src/main/assets/intent_model.tflite (tflite, 71356 bytes, 5 tensors)

arith.constant f4 [16, 32]
00000000: fad2 77be db98 c83c 9712 b23e a152 f23c
00000010: 0ed7 753e b77b 4abe 3375 05be 5adc e3be
00000020: f209 85be 6fe2 313e 9f5e 96be 7dd6 c4bd
00000030: 132c a73e be9c 993e 6ec6 523e a216 45be
00000040: 5957 943e a9af b6bc 5fd3 88bd cd89 f6be
00000050: b564 f3bd 2365 b1be ae8e 393e 5628 d13d
00000060: f5ee 91bd 9e95 c1be df5a cb3d 35cb 23be
00000070: 66a9 c6be 5bc1 6abd fdef 7d3e 33db 07be
00000080: 7f9f b33e 50ee 713d ff75 f9bd 58b5 c9be
00000090: b67d b8be f7ba 8c3e 03b7 77be 9c9a dabe
000000a0: 6b69 b5be 2b65 cf3e 62ae 2abe e6eb a03e
000000b0: e3a4 e43d a35a a43e b886 4cbe 6188 fbbe
000000c0: bba1 af3e d13b 8bbe 6d73 b43e 289d b3be
000000d0: 97ff 713e 4470 8cbe 1a2a babe 5eb6 cb3e
000000e0: 1ade a8bc 3e88 cabe 2e79 b13d 0128 9dbe
000000f0: cd2b 633d 16b0 873e c25e a9be 7f84 8d3e
00000100: 56df a6bd 64eb c4ba 0ec0 4ebd 9d29 7fbe
00000110: dee1 be3d ddd4 183e a6e0 99be 8d63 bfbe
00000120: 87ee e43e bba6 41be f432 23be 35df 863d
00000130: dbcf 8fbe 46c7 d1bc 40ca 1dbd 9e1f 473d
00000140: 2a71 0bbf 3186 f43e b919 93be a492 1a3d
00000150: 9279 57be fe0c da3e ff23 44be 83ca d2be
00000160: 54e2 bfbe f5b0 cabe 0c19 09bf b359 bdbd
00000170: 0162 05bf 8528 953e 51ba 333e 6230 663e
00000180: 998d 533b 1788 eabd c0c3 bdbe 5fdc 2a3e
00000190: dd11 9cbe c4e9 b3be 943a c43d 1261 b33d
000001a0: 81c3 8cbd ff8f 093e 11b3 48be 0567 96be
000001b0: 42eb 0dbe fa77 db3d 0467 1ebe 09de b83e
000001c0: e39d 0abf 6b5e ed3d 5414 d1bd 0667 bebe
000001d0: f02d b8be 1708 a83e bfbd 28be 4278 c8be
000001e0: 49a7 94be d0ea 993e 8075 d53d 8dff 99be
000001f0: 7ea5 92be 3b41 963e 95d7 903e 7b7a 813e
00000200: 0750 04be ad8d 883e 0268 8a3d c477 76be
00000210: ed2c 1e3e 9a6d febe a379 c5bd f15e 2cbd
00000220: 8fda 783d b461 9f3d 4e01 93be 436e 8ebd
00000230: e3aa f3be 8933 8fbe b139 623e 5cd4 b2be
00000240: ca49 893e c4ab c53c 2f18 3fbe feb2 dcbe
00000250: c028 5bbe f3c2 a83e e969 863e 9045 6c3e
00000260: 6d0e 67be cbfc e7be 5f26 6b3e 5e46 9d3e
00000270: 87cd 53be 6174 363d 85b2 f0be a9de a23e
00000280: cbf6 1cbe d3f8 76be 9d92 a73d fffb 88bd
00000290: 6ef7 773e 58d3 6cbe 501c 97be 72e5 f83e
000002a0: 2cfd b8be 3837 8abd 1d18 bf3d 39bb 0abe
000002b0: e072 803e e315 983e 2a37 b6bc 7d1d 81be
000002c0: 2cfa 23bc de8a 0fbe 37c2 acbd c3d8 cf3e
000002d0: bd2e 6cbe 82dc 01bf e8b6 553e 0ae5 84be
000002e0: bec6 acbd 464a a43d 71d3 9ebe 9130 2e3e
000002f0: 2106 1f3e da11 743e 5931 a3bc eedc 493e
00000300: a352 c1bd 1a0d 0f3e 940e 863d a6b2 dabe
00000310: b557 76be 0051 0fbf 5a9a bb3d c3bd 9ebd
00000320: 1641 39be 8237 803e 79d7 f4be 5ab9 79bd
00000330: b239 af3e 0dd1 9dbe b3f9 713e 5b65 c03e
00000340: 9fcc 013e 1ebe c0be 9f78 1b3e 2fdf 043c
00000350: 28cd 56be 3919 ed3d a776 cc3e 845e 81be
00000360: d116 8dbe 7f27 bf3c 3d9b 18bd 4686 563c
00000370: 4279 d73e c499 d9be fd93 bbbe 6b88 a83e
00000380: 542a 21be bb52 93bd 739f dcbe fa4a adbe
00000390: baa0 3cbe fbf4 d7bc 7e45 4b3d e441 e53d
000003a0: 005c b9be 8aaa 3c3e babf 09bf 7980 f7be
000003b0: aa1d b5bd 9f3d 07be 2630 0fbe c4e7 7f3d
000003c0: 56ed 84be e283 ddbd 30b2 39be 2ec5 813e
000003d0: 237f 163e 4605 09bf 890d 3f3e d6b4 b4be
000003e0: 951f a0be 2d2a c4be 9619 b0be cc4f f73d
000003f0: 74bb 6a3c 62d5 aebe 4b5f eabc 1eaf 7dbe
-0.24201575 0.02448695 0.34779808 0.029580416 0.24007818 -0.19773756 -0.13032989 -0.44504052
-0.2598415 0.17371534 -0.29369065 -0.09611223 0.32650813 0.30002397 0.20583507 -0.19246915
0.2897289 -0.022300558 -0.06680941 -0.4815201 -0.11884443 -0.34647474 0.18120834 0.102127716
-0.071256556 -0.3780946 0.09929442 -0.15995486 -0.38801116 -0.057313304 0.2479858 -0.13267212
0.35082623 0.059065163 -0.12180709 -0.39396167 -0.3603341 0.27486393 -0.24190907 -0.42696083
-0.3543199 0.40506873 -0.16668084 0.31429976 0.11164262 0.321004 -0.19973266 -0.49127486
0.34303078 -0.27194074 0.35244313 -0.35080838 0.23632656 -0.27429402 -0.36360246 0.39787573
-0.020613719 -0.3955707 0.08665691 -0.30694583 0.055461694 0.2650153 -0.33080107 0.2764015
-0.08148067 -0.0015023765 -0.050476126 -0.24918218 0.093204245 0.14924951 -0.30054206 -0.3738064
0.44713232 -0.18911259 -0.15937406 0.06585542 -0.2808827 -0.025607716 -0.03852296 0.048614137
-0.5446955 0.4775863 -0.28730562 0.037737504 -0.21042469 0.42588037 -0.19154356 -0.4117013
-0.37477362 -0.39588133 -0.53553843 -0.092456244 -0.5210267 0.29132476 0.17551543 0.22479394
0.0032280444 -0.11451738 -0.37063408 0.16685627 -0.3048238 -0.35139287 0.095814854 0.08758749
-0.06873227 0.13433836 -0.19599558 -0.29375473 -0.13859275 0.10716243 -0.15468985 0.361069
-0.54147166 0.115902744 -0.102089554 -0.37187976 -0.35972548 0.32818672 -0.16478632 -0.3915425
-0.29033878 0.3006196 0.10422802 -0.30077782 -0.28641886 0.29346642 0.28289476 0.25288758
-0.12921153 0.2667059 0.06758119 -0.24069124 0.15446825 -0.49692994 -0.09642341 -0.04208273
0.06075531 0.07782307 -0.28711933 -0.069546245 -0.47591314 -0.27969006 0.2209232 -0.34927642
0.2681411 0.024129756 -0.18661569 -0.4310531 -0.21402264 0.32961234 0.26252678 0.23073411
-0.22564097 -0.45310053 0.22963856 0.30717748 -0.20683871 0.04454458 -0.470112 0.318105
-0.15328519 -0.24118356 0.08182261 -0.066886894 0.2421548 -0.23127496 -0.29513788 0.48612553
-0.36130655 -0.067488134 0.09330771 -0.13547982 0.25087643 0.29704198 -0.022243101 -0.2521781
-0.010008376 -0.14017817 -0.08435481 0.40595064 -0.23064704 -0.50727093 0.20870554 -0.25955993
-0.084363446 0.08021979 -0.31020692 0.17010714 0.15529682 0.23834935 -0.019920992 0.19713184
-0.0943959 0.13969842 0.06545749 -0.42714423 -0.24056895 -0.5598297 0.091602996 -0.07751038
-0.18091235 0.2504235 -0.47820643 -0.06096778 0.34223706 -0.30823556 0.23630409 0.37577328
0.12675713 -0.37645048 0.15182732 0.008109852 -0.20976698 0.115770765 0.39934275 -0.25267422
-0.2755647 0.023334263 -0.03725742 0.013093537 0.420847 -0.42500126 -0.36636344 0.3291658
-0.15738803 -0.07193514 -0.430904 -0.33846265 -0.18420687 -0.026361933 0.04962682 0.11194208
-0.36203003 0.1842443 -0.53808177 -0.48340204 -0.088435486 -0.132071 -0.13983211 0.06247689
-0.25962323 -0.1081617 -0.1813438 0.2534575 0.14696936 -0.5352367 0.18657507 -0.35294217
-0.31274095 -0.38313428 -0.3439452 0.12075767 0.014326919 -0.34147173 -0.028609892 -0.24773833

arith.constant1 f4 [32, 16]
00000000: 33ec 27be 4021 30bc afd5 5e3e d173 783e
00000010: 0d0b 963d 5040 763e 2da6 133d 5d4a 6a3e
00000020: da12 c4be 7204 5b3e 2928 b4be 5a5e 39be
00000030: 0498 c83d 50d0 c7be 5d31 563e 9da4 db3d
00000040: ff7d 9bbe 7bfc 7a3e 5443 963e ae12 8c3e
00000050: 04cf 923e 2032 ee3d 8782 943e d210 e93d
00000060: 3df8 72bd 9a3f f03d 2907 37be 167a 293d
00000070: 05fb 133e 4db9 afbd a19c 85bc a744 7b3e
00000080: 7d10 63bc 11a9 98be 7cc2 b13e c3aa 633b
00000090: e5f7 893e 36de 41be cc2a edbe 6c0d 11bd
000000a0: 6184 adbe 634a 803e 148c b6be e5fd c93d
000000b0: 6080 833d 86b2 1abe 98c9 883e 5a60 353e
000000c0: 97e2 bcbe c031 763e f062 7cbd c009 7cbe
000000d0: 82b4 66be e3ae a33e fd31 983e e951 533d
000000e0: 41c9 8fbe e2cc 103e eb46 2f3d 0787 d83c
000000f0: 38c0 a53e 66c5 58be da36 423e feed a5be
00000100: 8401 ef3c b002 00be 04c8 573e c4ad 0fbe
00000110: 764f b83e 2cb9 543d 41fb 5b3e df66 b63e
00000120: ae7b 823e f99f 963d 3267 683e 5f4f d9bd
00000130: c4b3 c7bd ac23 a93e ec32 0bbd 98d1 55be
00000140: 1403 3ebd 9cd6 45be 55be 423e 0b49 84be
00000150: 899e 00be 67cf 7dbe f88f 923e e3d2 99be
00000160: df99 ffbe d623 c9be f8d4 c5be ea68 fa3e
00000170: 3250 603d 6d9f d7be 4b5b b5bd 2910 2b3e
00000180: 1555 193e db5b 8f3e b15d 343e b7b6 573e
00000190: 3c85 0fbe 6007 83be d996 c73d be69 893e
000001a0: 3dd1 bf3c 1104 103e 67b5 3ebe 8bce 1a3e
000001b0: 7e47 98be 72d2 aa3e 2d72 ef3c 0878 0b3e
000001c0: bb30 4e3e 9077 0cbb 86bc 26be 7e81 4d3e
000001d0: 57d6 dd3d 0293 4fbd e4c6 8f3e b913 49bc
000001e0: 7f50 0fbe 8081 e43e c137 97bd 4f63 6a3e
000001f0: 1a6a b13e f2d1 603c 536a b63c e825 acbe
00000200: e7f7 a8be c31c ec3c 5cd0 cebd df7e 2abe
00000210: d51f ef3d 1974 9a3e 2d48 0bbe 475b a13d
00000220: 0d37 e03e d5cf a5be e34e 3abe 2d34 153e
00000230: c6a1 cabb 735e 163e 52fe b63e cbb4 0e3e
00000240: d591 aa3e 993b 3c3e 61e5 52bc 56e8 0c3e
00000250: 9a00 80be 5a64 c8be 9b0e 9cbe cdbf 8fbe
00000260: 3ae1 9d3e 9966 d6be e307 893d eb47 febe
00000270: dd83 74be 135d 2fbe c8f2 99be a612 35be
00000280: 3fda 7bbe 5be9 273d 8b35 eebc 5560 ae3d
00000290: 0802 dabe eada 363e d40c 66bd d69e 843e
000002a0: 30b9 01bf d5e5 0abe 0e18 cbbe 4087 cd3e
000002b0: 6ef2 623d 188c e2be 5bcc e03d eeab eb3b
000002c0: a421 7e3d 4f36 f63d 40f4 7d3e 29d4 9abe
000002d0: 9d0c 9abe 0cfc df3d e03b fbbe fa7a e93d
000002e0: 9ceb 9abe 27c2 61be 7c2c a6be 8fcc 2ebe
000002f0: d9f6 2dbe 1151 33bd 1626 45be fd11 9cbe
00000300: 4d9f 30be 24ef 85be 64f1 24bd 75eb d93e
00000310: f9db f1be 7c30 bcbd dca4 dbbd 63c3 ea3e
00000320: 171c d1be 1bb5 c13e 97f4 e33d 359b 99be
00000330: f6d9 a83e abed fabe b062 77be 3a36 b3be
00000340: dba9 90be aa99 d93c ed3c 87be a4a3 2e3e
00000350: 2491 2a3e ef82 a2be b273 dfbc 9f1f 3b3d
00000360: 3757 11bd eb0a 9b3c 8f70 933e 8e1d 3dbe
00000370: 9e49 86be ad7c 87be 2939 d6bd a425 a43e
00000380: 2a26 00bd 0b75 3a3e d99d e2bd 25a1 95be
00000390: b3b7 0a3e 2762 8d3e 9bc1 81be 6b8e 813e
000003a0: fb59 a23e 52e3 13bd 2b96 9abe e7d1 40bd
000003b0: 7166 42bd 43e9 b33e 61ff 72be ae7a 0e3d
000003c0: 634a 8f3e 4a5e 9ebe 00f3 853d 3cbc 9cbe
000003d0: e1ad bfbd b07d f5be 0d9c b43e 180d 713e
000003e0: fcef ad3e 637a acbe 02c7 683e a22a ae3d
000003f0: 1929 40be 5998 b23e 9927 8d3e 502d 8d3e
-0.16398697 -0.010750115 0.21761201 0.2426293 0.073263265 0.24047971 0.03604715 0.2287993
-0.38295633 0.21388415 -0.3518689 -0.18102399 0.0979462 -0.39026117 0.20917268 0.10724757
-0.30369565 0.24510376 0.29348242 0.27358 0.28673565 0.11630654 0.29005834 0.11380161
-0.05931877 0.11730881 -0.17873825 0.041376196 0.14451225 -0.08580265 -0.016310038 0.24537908
-0.013858912 -0.29816487 0.34718692 0.0034739233 0.2694694 -0.18932423 -0.46321714 -0.03541319
-0.3389006 0.25056753 -0.35653746 0.0986288 0.0642097 -0.15107164 0.26716304 0.17712536
-0.36891624 0.24042416 -0.06161779 -0.24613094 -0.22529796 0.31969365 0.29725638 0.051591787
-0.28083232 0.14140657 0.042792242 0.026431574 0.32373214 -0.21169052 0.18966237 -0.32408136
0.029175527 -0.12501025 0.21072394 -0.1403113 0.35998124 0.051934406 0.21482565 0.3562536
0.25484985 0.07354731 0.22695616 -0.10610842 -0.097510844 0.33035028 -0.03398411 -0.20880735
-0.046389654 -0.19320148 0.19017918 -0.25836977 -0.12560476 -0.24786149 0.28625464 -0.30043706
-0.49922082 -0.39285153 -0.38639045 0.48908168 0.05476398 -0.4211382 -0.088553034 0.16705383
0.14973862 0.27999768 0.17613865 0.21065794 -0.14015669 -0.25591564 0.09745569 0.26838487
0.023415202 0.14064051 -0.18623887 0.15117852 -0.29742044 0.33363682 0.029229248 0.13620007
0.20135777 -0.002143357 -0.16282853 0.20068929 0.10831898 -0.050677307 0.2808143 -0.012272769
-0.1399555 0.4463005 -0.07383681 0.22889446 0.34651262 0.01372193 0.022267496 -0.3362267
-0.33001634 0.028822308 -0.10098335 -0.1664996 0.11675993 0.301667 -0.13601752 0.07878738
0.43792 -0.32385126 -0.18194155 0.14570685 -0.0061838357 0.14684467 0.35740906 0.13936155
0.33314386 0.1838211 -0.012872071 0.13760504 -0.2500046 -0.39139062 -0.30479893 -0.2807602
0.30835897 -0.4187515 0.066909574 -0.49664244 -0.23878427 -0.17125349 -0.3006804 -0.17682895
-0.24594973 0.04099403 -0.029078266 0.085144676 -0.42579675 0.17856947 -0.056164578 0.25902432
-0.506732 -0.13564236 -0.3966679 0.4014225 0.05540698 -0.44247508 0.10976478 0.0071921265
0.0620438 0.12022077 0.24800205 -0.3023999 -0.30087748 0.10936746 -0.49069118 0.11400409
-0.3025788 -0.2204672 -0.32455814 -0.1707022 -0.16988696 -0.043778483 -0.1925281 -0.30482474
-0.17248268 -0.26159012 -0.04026927 0.42562452 -0.47238138 -0.09188935 -0.10724804 0.45852193
-0.40841743 0.37833485 0.11130636 -0.30001226 0.3297879 -0.4900945 -0.2415874 -0.3500231
-0.2825459 0.02656253 -0.2641367 0.17054611 0.16656929 -0.3174052 -0.027276848 0.045684453
-0.035483565 0.018926105 0.28796813 -0.18468305 -0.2622804 -0.26462308 -0.10460121 0.32059968
-0.031286396 0.18208711 -0.11065263 -0.29224506 0.13546638 0.27613947 -0.25343022 0.2530397
0.31709275 -0.03610546 -0.30192694 -0.04707518 -0.047460977 0.35138902 -0.23730232 0.034784965
0.2798644 -0.30931312 0.06540489 -0.3061236 -0.09359337 -0.47947454 0.35275307 0.23540151
0.33972156 -0.33687124 0.22732165 0.08504225 -0.18765678 0.34881857 0.27569273 0.27573633

arith.constant2 f4 [1000, 16]
00000000: cf30 3fbd fb3e 56be 060b 09be 8ade 123e
00000010: 3787 31be 8f71 a2bd 9651 20bd 4bac 06bd
00000020: 8a26 2bbc d596 3bbc 1b5c a0bd d3f0 72bb
00000030: f0ec cc3c 9260 40bd 9aca 0d3e 87bb 1bbe
00000040: 30d1 883b d7ce 123d 002d 133b c2f2 963c
00000050: ed61 0a3d 5797 0b3d 1aed 09bd 3458 753c
00000060: 4093 87ba da02 903c 7248 be3c d952 2b3d
00000070: 9a1e bebc 18a5 b2bb b065 eabb 2043 91bc
00000080: aaa4 1abe 7ae0 f5bc 9336 8e3d 0c86 8bbd
00000090: c7ed 33be af82 aa3d 6e67 a13c 8f03 bb3c
000000a0: b1d4 d1bd 0073 3abd ceb5 93bd 6166 013e
000000b0: 2a5e f53c 65df 3bbe 76f7 99bc cd51 8c3c
000000c0: f819 f7bd 59b4 3e3e 72a5 893d d118 ebbd
000000d0: 64d1 cdbd 152a 283e 0bea 01be 9276 e0bd
000000e0: cb11 bbbd d6fa 15be af26 9dbd c419 8a3d
000000f0: f232 afbd 83a4 0ebe c3e6 4fbd 2264 6a3e
00000100: b292 b3bd c54f b93e 119d 473e 618a 19be
00000110: 7f99 553d 5b91 963d a30f ca3d c7f4 283e
00000120: 92e2 80bd 84ea 84be f373 2fbe 74af 533e
00000130: b49c 4fbe f110 1ebe 894f 0abe 22a0 b73e
00000140: 9f74 b23d 703b 7dbd 4693 51be cba6 723e
00000150: 46d7 45be 0028 1fbe 12c9 343e 1c3b 8e3d
00000160: c4eb d3bd 82bb 85be 9807 eabd 26c4 663e
00000170: ca26 b0be 0e79 fd3c 6c17 373e 5abd c1bd
00000180: 4799 dabc da00 013e e217 26be 4e09 88be
00000190: 5545 393e 559f 82bd 85be a43e 3836 8bbd
000001a0: e049 833e 63bd c9be ef1e c2ba 08a1 b43e
000001b0: 2dfd b3be 194b 453e 96ae ab3e b59d 643e
000001c0: cec1 8f3d c5af 69bc 2254 a9bc 118b 75bd
000001d0: ad23 c7bd 6faa 11bd 21a0 0fbe c96b 85bd
000001e0: e75a 4dbd 8ee6 afbd 7317 15be 4947 363b
000001f0: a403 6fbe a605 1a3d cbb7 6e3d 86ef 843d
00000200: ef8f f93d d965 d93d 6e8b 58bd 4125 30bd
00000210: 127a cb3c ab6e 74bd 8fcd 0abd 581f 8f3d
00000220: d00a c93d d8a6 05be e685 9bbd 69b0 763d
00000230: 671a 30be 8864 db3c e477 d63a 6fc8 60bb
00000240: efb9 803e 5ecd 703e f5d6 bfbd 7320 90bd
00000250: 0145 cabd e4d6 8e3e e8c7 a8be a77e 66be
00000260: 3eb5 7c3e 7f40 09be e789 14bc 7005 86be
00000270: 121b 06be 6bc1 4f3d 4f99 f1bd 17f5 923d
00000280: c0c1 943e cc42 9dbd 62bc ba3c eda1 de3c
00000290: 22c0 4f3e 0559 a0be 8a33 853e 67ab 873d
000002a0: 11ab 963e 87a0 cbbc d5a2 6b3e ac83 30be
000002b0: e39c 4c3e 0e0f 453e 794e 80be 56bb 70be
000002c0: 2b81 75be 5b3d 933e b839 663e 7d9b 23be
000002d0: 2712 a23e ec99 8b3e 587a 833e 0090 793e
000002e0: a397 563e aab9 82be 6fc3 bc3d b8be 933e
000002f0: a194 91be d522 533e 111f 833e b8ce a13e
00000300: 51ae 4bbd 6925 083e d7c2 20be e57d e8bd
00000310: 8fdd e93d 79b5 92bd 6cb2 383e fe30 923b
00000320: f6b1 cc3d 91ff 29be ca4b c23b e847 803e
00000330: 114c 85be 20b7 e83d 94b6 883e 33bf 6f3d
00000340: 3ad7 acbc 6460 57be d25e 823d 6086 53bd
00000350: 4b3b 263d 29df 4bbc 4921 003c 42c2 0a3e
00000360: 921d 4dbe 85c3 873e 21a7 d1bd cf36 883e
00000370: 6364 3f3e 94d7 04be 4382 f43d 085e ccbd
00000380: 4b0c 723e 2e81 39be 01ea 213e f57f 4c3e
00000390: c62c 1bbe e4ec 283c 17a7 87be 5a40 07be
000003a0: 88b2 4abe 3262 fe3d a524 85be 0d4a 9cbe
000003b0: 2d05 e8bd 93fb 2bbe 220b 5bbe cf01 f9bb
000003c0: 27d1 263e 1de5 96bd a077 07bd 9ffe 2a3c
000003d0: fcf4 043e a287 80be 45dd 6c3e bc14 bcbb
000003e0: c4fb 443e d3de bbbc ced9 7f3e 49e7 60be
000003f0: 4e93 033e 4d6d 3b3e 3e35 66be ba21 47be
-0.046677407 -0.20922463 -0.13383111 0.14342704 -0.17336737 -0.07931816 -0.039140306 -0.032879155
-0.0104462 -0.011449535 -0.07830068 -0.0037069812 0.025015324 -0.046967097 0.13846818 -0.15208255
0.0041753277 0.03584179 0.0022457242 0.018426303 0.033784796 0.034079876 -0.033673383 0.014974643
-0.0010343567 0.017579485 0.023227904 0.041827057 -0.023207951 -0.0054518096 -0.0071532354 -0.017732203
-0.15101877 -0.030014265 0.06944003 -0.06812677 -0.17571174 0.08325707 0.01970264 0.022828845
-0.10245646 -0.04551983 -0.07212411 0.1263671 0.029952127 -0.18346937 -0.018794756 0.01712885
-0.120655 0.18623485 0.06721009 -0.11479343 -0.10049704 0.16422303 -0.12686937 -0.109601155
-0.09134253 -0.14646468 -0.07673394 0.06743196 -0.08554639 -0.13929944 -0.05075718 0.2288976
-0.08768214 0.36193672 0.1949351 -0.14994194 0.05214834 0.07351943 0.09866264 0.16499625
-0.06293215 -0.2596017 -0.17134075 0.20672399 -0.20274621 -0.1543615 -0.13506903 0.3586436
0.0871365 -0.061824262 -0.20466337 0.23696439 -0.19320402 -0.15542603 0.17654827 0.06944868
-0.10347703 -0.2611962 -0.1142723 0.22535762 -0.34404594 0.030941512 0.17880028 -0.09459944
-0.026684416 0.12597981 -0.16220048 -0.265696 0.18092854 -0.063780464 0.32176605 -0.06797451
0.256423 -0.39402303 -0.0014810244 0.35279107 -0.35154095 0.19266929 0.33531636 0.22325785
0.07019387 -0.014263098 -0.02067 -0.059947077 -0.097236015 -0.03556293 -0.14025928 -0.06514699
-0.05013552 -0.08588897 -0.14559726 0.0027813485 -0.23341233 0.037603043 0.058280747 0.06490998
0.12185656 0.10615129 -0.052867346 -0.043004278 0.024838481 -0.059675854 -0.033887442 0.069884
0.098165154 -0.13051927 -0.075938985 0.06022683 -0.17197572 0.026781335 0.0016362634 -0.0034299155
0.25141856 0.23515841 -0.09367172 -0.07037439 -0.09876443 0.27898324 -0.32965016 -0.22509252
0.24678513 -0.1340351 -0.009066082 -0.26176023 -0.13096264 0.050721567 -0.117968194 0.071756534
0.2905407 -0.07678756 0.022794906 0.027176822 0.20288137 -0.31317917 0.26015884 0.06624489
0.29427388 -0.024856819 0.23011334 -0.17237729 0.19981723 0.19244024 -0.2505987 -0.23508963
-0.23975055 0.28757748 0.22482955 -0.15977283 0.31654474 0.2726587 0.25679278 0.24371338
0.20956282 -0.25532275 0.092169635 0.28856444 -0.28433707 0.20618756 0.2560964 0.31603026
-0.049726788 0.13295521 -0.15699326 -0.113521375 0.11419212 -0.071635194 0.18036813 0.0044614067
0.09994881 -0.16601397 0.005929445 0.2505486 -0.26034597 0.11363053 0.26701796 0.05853195
-0.021098722 -0.21032864 0.06365742 -0.05164182 0.04058389 -0.012443342 0.007820436 0.13550666
-0.20030811 0.26516357 -0.102369554 0.26604316 0.18690638 -0.12972862 0.11938908 -0.099788725
0.23637502 -0.18115684 0.15811922 0.19970687 -0.15153798 0.010310385 -0.26494667 -0.13208142
-0.19794667 0.12421073 -0.2600452 -0.30525246 -0.11329112 -0.16795187 -0.21390966 -0.0075990926
0.16290723 -0.07367919 -0.033073068 0.010436683 0.12984079 -0.2510348 0.23131283 -0.0057397764
0.19236666 -0.0229334 0.2498543 -0.21963228 0.12849161 0.18303414 -0.22481248 -0.1944646

arith.constant3 f4 [32]
00000000: 9e91 953c 83ff b1bb d330 833c f30e 0a3d
00000010: d0cf 0abd 3e25 473d a163 1ebd 1a37 1a3c
00000020: 090b 2a3d e1f7 823d 6375 273d fff8 353d
00000030: a027 1f3d 4209 93bc d3e8 0abc 3440 2a3d
00000040: d0e6 7b3c 1ce3 623d 2946 423c 1c3b 103d
00000050: ccca e63c 6642 6f3d 2550 0f3d 3588 803a
00000060: 40d7 613d eb57 b23c f540 24bc a08a 113d
00000070: 90a3 3d3c 5046 e83c 4518 523d 0000 0000
0.018257912 -0.0054320707 0.016014492 0.033705663 -0.03388959 0.0486195 -0.038669232 0.009412551
0.04151443 0.063949354 0.040883433 0.044426914 0.03885615 -0.01794875 -0.008478361 0.041565135
0.015374854 0.05539237 0.011857548 0.03521262 0.028172873 0.05841293 0.03498854 0.0009806218
0.05513692 0.021770438 -0.010025253 0.035532594 0.011574641 0.02835384 0.051292676 0.0

arith.constant4 f4 [16]
00000000: edac 4fba c939 8dbc d188 3fbd 4070 13bd
00000010: e283 5cbb 631c dd3c ea6e 57bc 3c10 7d3c
00000020: 069e de3c ab5b c13c d6cb 193d 72a7 153b
00000030: b17d c53a 1aaa 303c 1094 06bd 46ed 17bd
-0.0007922191 -0.017239468 -0.046761338 -0.03599572 -0.0033647944 0.026991075 -0.013149003 0.015445765
0.02717496 0.023603281 0.03754791 0.00228354 0.0015067366 0.010782743 -0.032856047 -0.037091516
